…
2024-07-02 10:58:29.038419: I tensorflow/core/common_runtime/gpu/gpu_device.cc:1639] Created device /job:localhost/replica:0/task:0/device:GPU:0 with 22321 MB memory:  -> device: 0, name: NVIDIA GeForce RTX 4090 D, pci bus id: 0000:41:00.0, compute capability: 8.9
Training model 1 with parameters: {'filters': 64, 'kernel_size': 3, 'pool_size': 2, 'EMBEDDING_DIM': 50, 'dropout': 0.3, 'learning_rate': 0.001} and batch_size: 32
Model: "sequential"
_________________________________________________________________
 Layer (type)                Output Shape              Param #   
=================================================================
 embedding (Embedding)       (None, 500, 50)           6707150   
                                                                 
 conv1d (Conv1D)             (None, 498, 64)           9664      
                                                                 
 max_pooling1d (MaxPooling1  (None, 249, 64)           0         
 D)                                                              
                                                                 
 conv1d_1 (Conv1D)           (None, 247, 64)           12352     
                                                                 
 global_max_pooling1d (Glob  (None, 64)                0         
 alMaxPooling1D)                                                 
                                                                 
 dropout (Dropout)           (None, 64)                0         
                                                                 
 dense (Dense)               (None, 128)               8320      
                                                                 
 dropout_1 (Dropout)         (None, 128)               0         
                                                                 
 dense_1 (Dense)             (None, 20)                2580      
                                                                 
=================================================================
Total params: 6740066 (25.71 MB)
Trainable params: 6740066 (25.71 MB)
Non-trainable params: 0 (0.00 Byte)
_________________________________________________________________
Epoch 1/20
2024-07-02 10:58:30.259226: I tensorflow/compiler/xla/stream_executor/cuda/cuda_dnn.cc:432] Loaded cuDNN version 8600
…
354/354 - 3s - loss: 0.0334 - accuracy: 0.9903 - val_loss: 1.6008 - val_accuracy: 0.7535 - 3s/epoch - 9ms/step
Epoch 20/20
354/354 - 4s - loss: 0.0286 - accuracy: 0.9918 - val_loss: 1.5456 - val_accuracy: 0.7542 - 4s/epoch - 10ms/step
Training model 2 with parameters: {'filters': 128, 'kernel_size': 3, 'pool_size': 2, 'EMBEDDING_DIM': 100, 'dropout': 0.5, 'learning_rate': 0.001} and batch_size: 64
Model: "sequential_1"
_________________________________________________________________
 Layer (type)                Output Shape              Param #   
=================================================================
 embedding_1 (Embedding)     (None, 500, 100)          13414300  
                                                                 
 conv1d_2 (Conv1D)           (None, 498, 128)          38528     
                                                                 
 max_pooling1d_1 (MaxPoolin  (None, 249, 128)          0         
 g1D)                                                            
                                                                 
 conv1d_3 (Conv1D)           (None, 247, 128)          49280     
                                                                 
 global_max_pooling1d_1 (Gl  (None, 128)               0         
 obalMaxPooling1D)                                               
                                                                 
 dropout_2 (Dropout)         (None, 128)               0         
                                                                 
 dense_2 (Dense)             (None, 128)               16512     
                                                                 
 dropout_3 (Dropout)         (None, 128)               0         
                                                                 
 dense_3 (Dense)             (None, 20)                2580      
                                                                 
=================================================================
Total params: 13521200 (51.58 MB)
Trainable params: 13521200 (51.58 MB)
Non-trainable params: 0 (0.00 Byte)
_________________________________________________________________
Epoch 1/20
177/177 - 32s - loss: 2.9844 - accuracy: 0.0614 - val_loss: 2.9426 - val_accuracy: 0.1261 - 32s/epoch - 182ms/step
…
177/177 - 3s - loss: 0.0351 - accuracy: 0.9905 - val_loss: 1.5875 - val_accuracy: 0.7695 - 3s/epoch - 16ms/step
Epoch 20/20
177/177 - 3s - loss: 0.0323 - accuracy: 0.9905 - val_loss: 1.6170 - val_accuracy: 0.7760 - 3s/epoch - 20ms/step
Training model 3 with parameters: {'filters': 256, 'kernel_size': 5, 'pool_size': 2, 'EMBEDDING_DIM': 100, 'dropout': 0.5, 'learning_rate': 0.0005} and batch_size: 64
Model: "sequential_2"
_________________________________________________________________
 Layer (type)                Output Shape              Param #   
=================================================================
 embedding_2 (Embedding)     (None, 500, 100)          13414300  
                                                                 
 conv1d_4 (Conv1D)           (None, 496, 256)          128256    
                                                                 
 max_pooling1d_2 (MaxPoolin  (None, 248, 256)          0         
 g1D)                                                            
                                                                 
 conv1d_5 (Conv1D)           (None, 244, 256)          327936    
                                                                 
 global_max_pooling1d_2 (Gl  (None, 256)               0         
 obalMaxPooling1D)                                               
                                                                 
 dropout_4 (Dropout)         (None, 256)               0         
                                                                 
 dense_4 (Dense)             (None, 128)               32896     
                                                                 
 dropout_5 (Dropout)         (None, 128)               0         
                                                                 
 dense_5 (Dense)             (None, 20)                2580      
                                                                 
=================================================================
Total params: 13905968 (53.05 MB)
Trainable params: 13905968 (53.05 MB)
Non-trainable params: 0 (0.00 Byte)
_________________________________________________________________
Epoch 1/20
177/177 - 24s - loss: 2.9933 - accuracy: 0.0563 - val_loss: 2.9853 - val_accuracy: 0.1053 - 24s/epoch - 138ms/step
…
177/177 - 3s - loss: 0.0281 - accuracy: 0.9923 - val_loss: 1.3427 - val_accuracy: 0.7744 - 3s/epoch - 19ms/step
Epoch 20/20
177/177 - 3s - loss: 0.0215 - accuracy: 0.9945 - val_loss: 1.4370 - val_accuracy: 0.7796 - 3s/epoch - 18ms/step
Training model 4 with parameters: {'filters': 128, 'kernel_size': 3, 'pool_size': 2, 'EMBEDDING_DIM': 200, 'dropout': 0.5, 'learning_rate': 0.001} and batch_size: 32
Model: "sequential_3"
_________________________________________________________________
 Layer (type)                Output Shape              Param #   
=================================================================
 embedding_3 (Embedding)     (None, 500, 200)          26828600  
                                                                 
 conv1d_6 (Conv1D)           (None, 498, 128)          76928     
                                                                 
 max_pooling1d_3 (MaxPoolin  (None, 249, 128)          0         
 g1D)                                                            
                                                                 
 conv1d_7 (Conv1D)           (None, 247, 128)          49280     
                                                                 
 global_max_pooling1d_3 (Gl  (None, 128)               0         
 obalMaxPooling1D)                                               
                                                                 
 dropout_6 (Dropout)         (None, 128)               0         
                                                                 
 dense_6 (Dense)             (None, 128)               16512     
                                                                 
 dropout_7 (Dropout)         (None, 128)               0         
                                                                 
 dense_7 (Dense)             (None, 20)                2580      
                                                                 
=================================================================
Total params: 26973900 (102.90 MB)
Trainable params: 26973900 (102.90 MB)
Non-trainable params: 0 (0.00 Byte)
_________________________________________________________________
Epoch 1/20
354/354 - 58s - loss: 2.8666 - accuracy: 0.1195 - val_loss: 2.2645 - val_accuracy: 0.3475 - 58s/epoch - 163ms/step
…
354/354 - 3s - loss: 0.0479 - accuracy: 0.9873 - val_loss: 1.4158 - val_accuracy: 0.7726 - 3s/epoch - 10ms/step
Epoch 20/20
354/354 - 3s - loss: 0.0398 - accuracy: 0.9900 - val_loss: 1.5313 - val_accuracy: 0.7669 - 3s/epoch - 9ms/step
Training model 5 with parameters: {'filters': 64, 'kernel_size': 5, 'pool_size': 2, 'EMBEDDING_DIM': 100, 'dropout': 0.4, 'learning_rate': 0.001} and batch_size: 64
Model: "sequential_4"
_________________________________________________________________
 Layer (type)                Output Shape              Param #   
=================================================================
 embedding_4 (Embedding)     (None, 500, 100)          13414300  
                                                                 
 conv1d_8 (Conv1D)           (None, 496, 64)           32064     
                                                                 
 max_pooling1d_4 (MaxPoolin  (None, 248, 64)           0         
 g1D)                                                            
                                                                 
 conv1d_9 (Conv1D)           (None, 244, 64)           20544     
                                                                 
 global_max_pooling1d_4 (Gl  (None, 64)                0         
 obalMaxPooling1D)                                               
                                                                 
 dropout_8 (Dropout)         (None, 64)                0         
                                                                 
 dense_8 (Dense)             (None, 128)               8320      
                                                                 
 dropout_9 (Dropout)         (None, 128)               0         
                                                                 
 dense_9 (Dense)             (None, 20)                2580      
                                                                 
=================================================================
Total params: 13477808 (51.41 MB)
Trainable params: 13477808 (51.41 MB)
Non-trainable params: 0 (0.00 Byte)
_________________________________________________________________
Epoch 1/20
177/177 - 24s - loss: 2.9748 - accuracy: 0.0712 - val_loss: 2.9142 - val_accuracy: 0.1184 - 24s/epoch - 135ms/step
…
177/177 - 4s - loss: 0.0515 - accuracy: 0.9848 - val_loss: 1.3606 - val_accuracy: 0.7609 - 4s/epoch - 24ms/step
Epoch 20/20
177/177 - 3s - loss: 0.0499 - accuracy: 0.9867 - val_loss: 1.3120 - val_accuracy: 0.7638 - 3s/epoch - 18ms/step
Training model 6 with parameters: {'filters': 256, 'kernel_size': 3, 'pool_size': 2, 'EMBEDDING_DIM': 150, 'dropout': 0.3, 'learning_rate': 0.001} and batch_size: 32
Model: "sequential_5"
_________________________________________________________________
 Layer (type)                Output Shape              Param #   
=================================================================
 embedding_5 (Embedding)     (None, 500, 150)          20121450  
                                                                 
 conv1d_10 (Conv1D)          (None, 498, 256)          115456    
                                                                 
 max_pooling1d_5 (MaxPoolin  (None, 249, 256)          0         
 g1D)                                                            
                                                                 
 conv1d_11 (Conv1D)          (None, 247, 256)          196864    
                                                                 
 global_max_pooling1d_5 (Gl  (None, 256)               0         
 obalMaxPooling1D)                                               
                                                                 
 dropout_10 (Dropout)        (None, 256)               0         
                                                                 
 dense_10 (Dense)            (None, 128)               32896     
                                                                 
 dropout_11 (Dropout)        (None, 128)               0         
                                                                 
 dense_11 (Dense)            (None, 20)                2580      
                                                                 
=================================================================
Total params: 20469246 (78.08 MB)
Trainable params: 20469246 (78.08 MB)
Non-trainable params: 0 (0.00 Byte)
_________________________________________________________________
Epoch 1/20
354/354 - 54s - loss: 2.4250 - accuracy: 0.2556 - val_loss: 1.3252 - val_accuracy: 0.5993 - 54s/epoch - 153ms/step
…
354/354 - 3s - loss: 0.0247 - accuracy: 0.9938 - val_loss: 1.6334 - val_accuracy: 0.7719 - 3s/epoch - 9ms/step
Epoch 20/20
354/354 - 4s - loss: 0.0237 - accuracy: 0.9942 - val_loss: 1.7214 - val_accuracy: 0.7554 - 4s/epoch - 11ms/step
Training model 7 with parameters: {'filters': 128, 'kernel_size': 3, 'pool_size': 3, 'EMBEDDING_DIM': 100, 'dropout': 0.6, 'learning_rate': 0.001} and batch_size: 64
Model: "sequential_6"
_________________________________________________________________
 Layer (type)                Output Shape              Param #   
=================================================================
 embedding_6 (Embedding)     (None, 500, 100)          13414300  
                                                                 
 conv1d_12 (Conv1D)          (None, 498, 128)          38528     
                                                                 
 max_pooling1d_6 (MaxPoolin  (None, 166, 128)          0         
 g1D)                                                            
                                                                 
 conv1d_13 (Conv1D)          (None, 164, 128)          49280     
                                                                 
 global_max_pooling1d_6 (Gl  (None, 128)               0         
 obalMaxPooling1D)                                               
                                                                 
 dropout_12 (Dropout)        (None, 128)               0         
                                                                 
 dense_12 (Dense)            (None, 128)               16512     
                                                                 
 dropout_13 (Dropout)        (None, 128)               0         
                                                                 
 dense_13 (Dense)            (None, 20)                2580      
                                                                 
=================================================================
Total params: 13521200 (51.58 MB)
Trainable params: 13521200 (51.58 MB)
Non-trainable params: 0 (0.00 Byte)
_________________________________________________________________
Epoch 1/20
177/177 - 24s - loss: 2.9919 - accuracy: 0.0556 - val_loss: 2.9780 - val_accuracy: 0.0964 - 24s/epoch - 138ms/step
…
